ESPCN_2D/uf=4_iteration_60.pth (torch_old, 816326 bytes, 24 tensors)

conv1.weight f4 [64, 1, 5, 5]
000000 df 75 2e be 3b 55 97 3c 36 20 55 be 8a f5 13 bd
       -0.17037152 0.018473258 -0.20813069 -0.036122836
000010 ff 58 1d bb 61 4a 7f 3d 25 9c 07 be 47 47 ca bd
       -0.0024009345 0.062326793 -0.13243158 -0.09876876
000020 e6 ba 14 be 62 dd 41 3d 5e 0c 04 3c 18 aa df bd
       -0.14524421 0.047330268 0.008059589 -0.10921115
000030 27 f4 7b be 3e a4 0a 3e ad 65 f0 bd 55 6a 52 3d
       -0.24604855 0.13539216 -0.11738143 0.051370937
000040 8c 65 12 3d 58 10 de be 57 69 ea bd 24 cc 93 bd
       0.035741374 -0.43371844 -0.11445873 -0.07216671
000050 d4 d4 02 3c 67 4c 47 be fe c1 ef 3d e0 cf d1 bd
       0.0079853125 -0.19462739 0.11706923 -0.10244727
000060 9e 42 84 3d 8c fe db bd 78 f7 5f 3d 5b 44 fe 3e
       0.06458019 -0.1074191 0.054679364 0.49661526
000070 08 e0 5e 3c 3e 7d 30 3d 0d db a1 3d cd 5e 0b bc
       0.013603218 0.04308819 0.07903109 -0.008506489
000080 6d fe 97 3e ab a1 d8 3d c0 85 d0 bd 8b be e2 bc
       0.296863 0.10577711 -0.10181761 -0.027678749
000090 e2 66 7b be 0e c2 73 3c 34 f1 c5 bd da be 59 3d
       -0.24550965 0.014877809 -0.096651465 0.053160526
0000a0 5d a5 44 3d 50 e1 e1 bd 2e 3c f8 be fe 92 55 3b
       0.048009265 -0.11029303 -0.48483413 0.0032588835
0000b0 38 53 60 bc ec a1 b3 3d 9b 74 4b bc 20 fc ba bd
       -0.013691716 0.087711185 -0.012417938 -0.0913012
0000c0 4a 55 e4 bc c3 b9 8f 3c e5 12 4a bd 2a 5d 42 3e
       -0.0278727 0.017544633 -0.049334425 0.18980852
0000d0 57 b4 27 be 02 a1 8c 3d c2 8d 15 bd 1e 91 c0 3d
       -0.16377388 0.06866647 -0.036512144 0.09402679
0000e0 b9 93 05 3e c6 3a 83 3e 54 62 04 3e fb 4b 9a bd
       0.13044633 0.25630778 0.12928134 -0.075340234
0000f0 af d7 1a be 14 95 34 3e ce 31 04 3c 3c 67 18 bd
       -0.1512134 0.17634994 0.008068515 -0.037207827
000100 28 62 28 be 86 bb d4 3c 56 ad 85 3d 11 df 83 be
       -0.16443694 0.025968324 0.06527202 -0.25756124
000110 f5 bc ae 3d 51 17 08 3d ab df d7 3d 38 3d 8d be
       0.085321344 0.03322536 0.10540708 -0.2758577
000120 30 d8 17 bd 91 68 f5 3c ec 9e 15 be 4d bd b7 bd
       -0.037071407 0.029957088 -0.14611405 -0.08971653
000130 ca 9d 7d bc 9e f5 7b bd 3a f2 86 be 99 84 b4 bc
       -0.015479514 -0.061513536 -0.2635668 -0.022035884
000140 d5 68 55 3e 99 2a 83 bd 67 0e e5 bd 1c f2 fc 3d
       0.20840771 -0.06404609 -0.11184388 0.12350866
000150 7c a3 ec bd 6a 33 91 bd 37 e3 ed bd f0 76 f3 be
       -0.1155462 -0.070898846 -0.116156034 -0.4755168
000160 95 f8 2b 3e e9 ea 46 be fb ff c1 bd b5 22 f1 bd
       0.16794045 -0.19425549 -0.094726525 -0.11774198
000170 db de de bd 83 77 1c 3e e3 cf c9 3e 99 a4 0f 3e
       -0.1088235 0.15279965 0.39416417 0.14027633
000180 58 21 9a bd f1 72 88 bd aa 5d 36 be 87 c3 cd bd
       -0.07525891 -0.06662548 -0.17809168 -0.100470595
000190 89 ac 73 3d 71 03 79 bd 46 8b 0a 3d 11 cf 01 be
       0.059490714 -0.060794298 0.033824228 -0.12676646
0001a0 ee fc c9 3c 47 c9 b8 bd 7e f4 9f 3c 39 01 5c 3e
       0.02465674 -0.090227656 0.019525763 0.21484841
0001b0 60 13 9d be fd b9 0a bd 52 cf 1d 3e 5a bd 96 bd
       -0.30678844 -0.03386878 0.15411118 -0.07360335
0001c0 73 b7 5e 3d 7e ec 66 3e 74 a2 5e 3e 56 a4 9d bd
       0.05437417 0.22551152 0.21741658 -0.0769736
0001d0 75 0b f2 bd bb 89 da be cf d8 8a 3e 84 37 a4 3d
       -0.118185915 -0.42683205 0.27118537 0.08018401
0001e0 c3 37 a8 3c f8 87 74 3c 1c b1 9f 3d 4c 0b 6a bd
       0.020534402 0.014924996 0.07797453 -0.05713968
0001f0 fd d0 b6 bd 46 3d 6b bf 5f ca da be 7e 7d 11 3e
       -0.0892658 -0.9189037 -0.42732522 0.14208028
000200 e9 60 42 3e f6 fd 16 bd 4c b8 c8 be ee ee b5 be
       0.18982281 -0.03686329 -0.39203107 -0.3553385
000210 4a 32 28 be eb 9f 0f be 6f fd 3a 3e 75 49 0b bf
       -0.16425434 -0.14025848 0.1826074 -0.5440896
000220 71 cf c6 bd 87 c2 99 bd 4b f1 3e bd d0 5b 59 bd
       -0.09707535 -0.07507806 -0.046616834 -0.053066075
000230 f7 fa 0b bf 8e c1 c8 3d 69 d2 53 3e bb 7e f8 3e
       -0.54679817 0.098025426 0.20685734 0.48534188
000240 9c 4b f8 bd 98 5c 00 be 44 4f 3c be 27 a8 9b 3c
       -0.12123796 -0.12535322 -0.18389612 0.01900108
000250 5c 7d 52 bd 82 1c 81 3e 65 71 94 3e e9 1a 96 3d
       -0.051389083 0.25217062 0.28992763 0.073293515
000260 84 21 fe bd 32 3f 2c 3e c8 37 40 3e 83 71 0e 3c
       -0.12408736 0.16820982 0.18771279 0.0086940555
000270 77 37 67 3e 03 ed 86 be 2b 14 89 3d ce 68 96 be
       0.22579752 -0.263527 0.066933 -0.29376835
000280 b0 f8 c5 3d d4 1d 19 3e a8 e0 9c bd 74 0f 91 3e
       0.09666574 0.14952785 -0.07660037 0.28332102
000290 08 7d 82 3e 90 bc b8 bd 28 cb ba 3c e4 81 6b 3d
       0.25486016 -0.090203404 0.02280195 0.05749692
0002a0 b7 f9 4d 3e 93 5c 74 3e c6 83 c4 3b 45 66 f0 3c
       0.2011479 0.2386344 0.005997154 0.02934564
0002b0 03 c2 dd 3d 37 42 b8 3d 7a d9 11 bd 32 0c a6 3c
       0.108280204 0.089970045 -0.035607792 0.020269487
0002c0 29 c3 1d be bf 95 d3 bd f9 56 2a 3d b2 21 14 3e
       -0.15406479 -0.10331296 0.04158685 0.14465979
0002d0 d4 fa 12 3e 08 74 8a 3e 0d 4a 7c be 5c 30 cb 3d
       0.14353496 0.2704165 -0.24637623 0.09921333
0002e0 6c 46 92 bd b7 d0 94 be 6d 36 23 3d b4 0d 02 bd
       -0.07142338 -0.29065487 0.039846826 -0.03175135
0002f0 84 91 09 3e 09 59 62 be 91 88 fc bc 9a 70 7e be
       0.13434416 -0.22104277 -0.030826839 -0.24847642
000300 75 40 01 3f 0c e1 a3 bd ad 9a 1d be d9 8a 57 3d
       0.5048898 -0.08001909 -0.15391035 0.05262265
000310 be de b5 bb 50 a0 f0 bd 2b bc dd bd 8c c5 53 bd
       -0.0055502346 -0.11749327 -0.10826906 -0.051702067
000320 cc d8 93 bd 30 26 6e be f2 06 52 3e c4 38 8a bd
       -0.07219085 -0.23256755 0.20510462 -0.067491084
000330 fc 45 ce bd df 22 e6 3c dd e6 20 3e 58 bb 55 be
       -0.10071942 0.0280928 0.15713067 -0.20872247
000340 7d 1e 86 be 7d d7 74 bd 80 28 2a 3e 1e f4 76 3e
       -0.26195136 -0.05977582 0.16617012 0.24116561
000350 83 05 8f 3e 58 87 10 be fe f3 18 3e 71 9c 25 bd
       0.27933893 -0.1411413 0.14936826 -0.040432397
000360 ad 3d fc bd 4b 03 6f be f9 78 17 3e df e2 2b bd
       -0.12316451 -0.233411 0.14792241 -0.041964408
000370 ea e0 24 3c 23 97 22 3c 40 ad 3b 3e 5c 89 34 bd
       0.010063389 0.009923729 0.18327808 -0.04407631
000380 ca cc b0 3c eb 8c 74 bd c7 60 dd 3d 23 43 03 3d
       0.021582026 -0.059704702 0.108094744 0.03204645
000390 ab e0 ed bc b2 6a c5 bd db a3 81 3d f7 be b3 3e
       -0.029037794 -0.09639491 0.06330081 0.35106632
0003a0 b9 f0 29 3d 5c e5 08 be b1 ed 5e 3e 82 44 ad 3d
       0.041489337 -0.13368744 0.2177036 0.084603325
0003b0 ff 1d 89 be a8 27 ec bd b3 c9 2e 3e dc 29 4e be
       -0.26780698 -0.11531001 0.1706913 -0.20133156
0003c0 fd 9b 66 be 06 f0 e6 3c 4e 7d 37 be a5 3b b2 3d
       -0.22520442 0.028190624 -0.17918894 0.087027825
0003d0 bd bf c9 3d c2 22 d5 3c 83 f1 6e be 48 a0 9b 3e
       0.09851024 0.02601755 -0.23334317 0.30395722
0003e0 f5 b2 3e bd 80 52 70 bc 04 98 7e 3c 66 5e 42 bd
       -0.046557385 -0.014668107 0.015539173 -0.047453307
0003f0 e8 33 07 3e 38 58 5c 3d 0e 05 93 3d 0a 85 2e be
       0.13203394 0.05379507 0.071786985 -0.17042938

conv1.bias f4 [64]
000000 e7 85 f8 3d 01 72 0b 3b f1 01 33 bb 1a f6 0a 3e
       0.12134915 0.0021277668 -0.002731439 0.13570443
000010 27 04 69 3c 46 28 65 3c f9 e6 0c be c0 c5 1e 3b
       0.014222181 0.013986653 -0.13759984 0.0024226755
000020 57 45 46 3c c3 14 31 bb d0 37 79 bd 20 a7 35 3b
       0.012101493 -0.0027020432 -0.060844243 0.0027718022
000030 24 af 00 bd 60 7e 46 bb 1b 25 cb bc 8b b5 94 39
       -0.031417027 -0.0030287728 -0.024797967 0.0002836402
000040 ee dc c8 bd e1 80 09 bb 6f 53 e4 bb c4 be 13 3d
       -0.09807764 -0.0020981359 -0.006967954 0.0360706
000050 1f b9 67 3c 5b 26 00 bb cb fc 8b 3b 7c 6d 21 3b
       0.014143257 -0.0019554112 0.0042720786 0.0024631908
000060 5f 25 7d 3c d7 e5 3f 3b ce 61 36 bd 69 7c b5 ba
       0.0154508045 0.0029281282 -0.044526868 -0.0013846281
000070 aa 0d c0 3d 8a b6 99 bb bb 4d 21 3b 0e de 1b 3a
       0.09377606 -0.00469095 0.0024612981 0.00059458695
000080 2f fc ba 3c 89 2d 57 bc 00 a6 f8 3c f2 81 1a bc
       0.022825329 -0.013133415 0.030352592 -0.009430395
000090 51 b1 8d 3b df 64 84 3b 54 eb 5c be 3d 6d 33 be
       0.0043241163 0.004040345 -0.21574146 -0.1752214
0000a0 3d 2f de 3b 97 2d 9b 3d 29 cc 80 3b b6 9d cd 3c
       0.0067805336 0.07577055 0.003930588 0.025099616
0000b0 3b 08 0b bd 66 85 2a 3d 5f 04 f7 bc 3b 65 72 bb
       -0.033943396 0.041631125 -0.030153451 -0.0036986608
0000c0 29 a0 fc bd 2f 55 d0 3b b8 3c 27 bd 9c af fe 3c
       -0.123352356 0.006357811 -0.04082939 0.031089596
0000d0 fa e2 02 bd 7e f5 b4 3d d8 fd 7e 3b 44 6e a2 3c
       -0.031954743 0.088358864 0.0038908627 0.01982797
0000e0 9b 64 c2 bc c2 d6 b0 b8 a1 25 2d bc 7a 71 32 be
       -0.023729613 -8.432336e-05 -0.010568053 -0.174261
0000f0 0c 06 87 3c 99 76 47 bd 96 0f 25 3b 69 0e a6 bc
       0.016482376 -0.048697088 0.0025186292 -0.020270543

conv2.weight f4 [64, 64, 3, 3]
000000 67 0f 99 3d 06 8f 40 3d 15 d8 0d 3d 11 3e 36 3e
       0.07473641 0.047011398 0.0346299 0.17797114
000010 24 d7 05 bd e9 04 4c 3c a6 79 19 3d bd bb 49 bc
       -0.032675877 0.012452343 0.03746953 -0.012312827
000020 2a 9e 08 bd 7c 5a 31 bd b2 a5 70 bd 17 50 c9 3c
       -0.033353962 -0.043299183 -0.05875177 0.024574323
000030 8f bb 93 3d 95 bd 9a bd ca 01 f3 bc 6f 4d de bc
       0.07213508 -0.07555691 -0.029663939 -0.027136533
000040 d0 4c 8a bd a4 92 11 bd ab 48 8a 3d 58 95 0a be
       -0.06752932 -0.035540238 0.067521416 -0.13533533
000050 ba 10 e7 3c ba 5d 3d 3d 5b 37 40 3c 7c 44 e3 bb
       0.028206218 0.046231963 0.011731948 -0.006935654
000060 1e ff 08 3c 4d f2 35 3d 3c 19 8e 3d 13 cf 3e bd
       0.008361606 0.04442053 0.06938407 -0.0465842
000070 ac 59 0a 3d 6f 5a c3 bc 80 2f 1e 3d ea c2 56 3d
       0.033776924 -0.023846833 0.03861952 0.05243198
000080 06 74 30 3d af cc f4 bd f9 40 bf bc b7 d0 ec bd
       0.0430794 -0.11953103 -0.023346411 -0.11563247
000090 fc 5a b7 3b 57 0f cb 3c 4a c9 f7 3d 80 9c 49 be
       0.005595563 0.024787588 0.1209894 -0.19688606
0000a0 c8 d4 01 bd ec 81 f9 3d 17 0a 56 bc 94 09 36 3d
       -0.031697065 0.12182984 -0.013063929 0.04444273
0000b0 ff 0a 65 ba a2 e5 2c 3e 4e dc 69 3e e7 26 37 be
       -0.0008737295 0.16884473 0.22837946 -0.17885934
0000c0 80 dc 63 3d 8f 6d 11 3d ab a9 87 bc 6b b3 b9 bc
       0.055630207 0.035504874 -0.016560396 -0.022668561
0000d0 fc 03 71 3d 13 d6 6c be 66 c8 03 bc 50 40 81 bb
       0.05884169 -0.23128538 -0.008043384 -0.003944434
0000e0 bc 74 81 bd 93 36 7d 3c e8 d5 1f 3d fb 07 d4 bb
       -0.063210934 0.015454906 0.039022356 -0.006470678
0000f0 d0 a3 f3 bb c5 56 07 be c1 76 fb bc b2 22 7e 3d
       -0.0074352995 -0.13216694 -0.030696275 0.062044807
000100 df 1b 2a 3d c0 a1 38 3e d2 36 0f 3d bd b0 6b bd
       0.041530486 0.18030453 0.03496439 -0.057541598
000110 77 67 1e 3d 8d bc 5b 3d 58 93 0e 3d 86 e8 45 bd
       0.03867289 0.053646613 0.034808487 -0.048317455
000120 df 8c 35 be bb eb 86 bd 95 53 3e bd 88 ed ae be
       -0.1772952 -0.06587931 -0.04646643 -0.34165597
000130 85 05 11 3d aa a4 45 3c a7 25 70 be 4b 6a f3 3d
       0.035405654 0.012063185 -0.23451863 0.11885508
000140 6a 0e 31 be e2 39 e0 bd 61 6a 2f be c1 8d d0 3d
       -0.17290655 -0.1094854 -0.17130424 0.101832874
000150 93 b1 a0 bd 01 48 8d bb a8 ab 4a 3e 0c 80 a6 3d
       -0.078463696 -0.004311562 0.19792044 0.08129892
000160 29 3d 80 bc c3 28 ff 3d f8 0d 9e 3c 15 89 6c bd
       -0.015654163 0.124589466 0.01929377 -0.05774792
000170 1d d3 1b bd d6 e8 ab bc 4b a5 61 bc 8f 7d 88 3c
       -0.03804313 -0.020985048 -0.013772319 0.016661434
000180 8b ed 5d 3d 7d dc 7f 3a e5 d4 8b bd 04 b7 2d bd
       0.054181617 0.00097603333 -0.06827716 -0.042410865
000190 2d 68 4e bd 16 36 02 bd 29 df cb bd 6d d4 26 be
       -0.05039232 -0.03178986 -0.09954674 -0.16291972
0001a0 54 18 34 be f2 ca c2 bc a6 bc 67 3e 0e 99 88 3c
       -0.17587405 -0.023778412 0.22630557 0.016674545
0001b0 27 32 fd bd 12 95 18 3e a7 3d 4e bc ae e6 62 3d
       -0.123630814 0.14900616 -0.012587941 0.055395775
0001c0 2f e7 5b 3c 1d 43 08 3d 12 f3 45 3d 34 e3 84 bd
       0.013421818 0.03326713 0.048327513 -0.06488648
0001d0 65 00 a4 bc 05 c4 01 3e f3 d5 03 be b8 15 b4 bd
       -0.02001972 0.12672432 -0.12874584 -0.08793205
0001e0 16 26 d3 bd 6c 0d 91 bd 53 39 86 be 38 1b 40 3d
       -0.10309999 -0.07082638 -0.2621561 0.046900958
0001f0 3c e3 17 be e2 07 06 be bc 4b f5 bd 19 59 ef bd
       -0.14832777 -0.13088945 -0.11977336 -0.11686916
000200 01 a0 46 bd c6 0b 77 bd bd 1d 37 3e ac a5 4a 3d
       -0.048492435 -0.060313962 0.17882438 0.049474403
000210 31 66 11 be d5 57 a4 bd 4d 8d 5a 3d 4d 95 34 be
       -0.14199139 -0.08024565 0.05335741 -0.17635079
000220 f7 d4 42 3c 47 ad bb 3d 39 11 f8 39 58 2a 60 3d
       0.011891595 0.091639094 0.00047315078 0.054727882
000230 6d ea de bd be 0e ba bc ee 17 ad 3c cd 46 c5 3d
       -0.10884557 -0.022712108 0.021129575 0.09632645
000240 34 bd 4d bd a2 3e 3e 3e 9c 6e 35 3e 6a 7b fe bd
       -0.050229266 0.1857858 0.17717975 -0.12425883
000250 fd 97 7a be 57 d9 87 3e ae b2 ab bc 21 c4 e9 bd
       -0.24472041 0.26533005 -0.020959225 -0.11414362
000260 a5 f2 6d 3d 12 84 08 bd 63 46 85 bd 71 f8 bc bd
       0.058092732 -0.033329077 -0.06507566 -0.09227074
000270 ad e5 0d be 4c ff 72 bc bf de 0a be 3c 33 34 3d
       -0.13857146 -0.014831375 -0.13561533 0.043994173
000280 d3 e1 2f 3e 87 da 97 be 82 75 af bc 43 8a 47 bd
       0.17175989 -0.2965891 -0.021418337 -0.04871584
000290 31 0d 7b 3d 3c 57 a8 bd 66 fe 87 3b 89 b4 24 be
       0.061291877 -0.08219764 0.0041501997 -0.16084494
0002a0 ed ad c0 bc 40 04 5c bd 8e a5 a5 3d d1 cc 4a 3e
       -0.023520434 -0.05371499 0.08088218 0.19804694
0002b0 b8 c1 9b bd b3 c9 90 be e8 6b 10 3e ea 3d a0 bd
       -0.07605308 -0.28278884 0.14103663 -0.07824309
0002c0 0d 65 19 bb 02 64 f8 3d d1 0e c6 bd 86 97 8e bc
       -0.0023406178 0.1212845 -0.09670795 -0.017406236
0002d0 1a b0 45 bd ba 7f bd bd 24 87 e5 bd 0e fd bb bd
       -0.048263647 -0.092528775 -0.11207417 -0.09179126
0002e0 a7 0e 32 be d1 f3 cf bb 3f 48 30 b9 0f aa cf 3d
       -0.17388402 -0.006346204 -0.00016811582 0.10139858
0002f0 ee e8 4a 3d 14 38 dd 3d 8c 4d 56 bd 58 5f 21 3d
       0.049538545 0.10801712 -0.05232005 0.039397568
000300 cd 95 af 3d ac c4 6a 3d 53 a8 12 3e c7 80 a4 3d
       0.08573494 0.057316467 0.14322023 0.08032375
000310 79 a8 35 bc 3b 95 97 3d 0b 5f 1a 3d 92 19 06 3d
       -0.01108753 0.0740151 0.037688296 0.03273923
000320 7b b0 2d be e2 95 26 bc 50 ba d7 bd d5 85 d1 bd
       -0.16961853 -0.010167571 -0.10533583 -0.102306046
000330 c0 4a ab 3d 9d c7 57 bd ea 51 a0 bd 26 c7 c8 3d
       0.08363867 -0.0526806 -0.07828124 0.098036095
000340 2e 31 c3 bd 56 b6 04 be 5c b4 6d 3d a3 9f f1 bd
       -0.09530865 -0.1296018 0.058033332 -0.117980264
000350 21 3a 9f 3b ed 3b 1d 3d b6 89 94 be a6 d8 57 bd
       0.0048592244 0.038387228 -0.29011315 -0.052696846
000360 2f ac 45 3c a8 26 10 3d 91 87 02 3d b6 f2 a8 3d
       0.012064978 0.035193115 0.031867567 0.082494184
000370 44 28 19 3e 04 d8 81 3d 1f a9 91 bd fc b6 40 3b
       0.14956766 0.0634003 -0.071123354 0.0029405942
000380 99 e1 00 3d dd eb de bc fc 19 4d ba f4 64 48 bb
       0.031465147 -0.027212078 -0.00078240014 -0.003057775
000390 b6 20 54 3c 51 9c a0 bd ad 2a 15 3d bf 67 7e be
       0.012947252 -0.07842315 0.036417652 -0.24844263
0003a0 95 74 f4 3c a4 5c 87 3b df 9c e0 3d ce 36 36 bc
       0.029840747 0.0041309167 0.10967421 -0.011121465
0003b0 9e 04 9c 3d 66 ef 62 3e 9e 1e 44 3d f6 3c b5 bd
       0.07618068 0.22161636 0.04788076 -0.08849518
0003c0 ee b9 0b be e1 3c e2 bc db 88 6b bd 78 44 05 bd
       -0.13645145 -0.02761692 -0.057503562 -0.032536
0003d0 99 89 7a 3c df f7 ee 3d 1f 69 f3 3c db 27 94 3d
       0.015291595 0.116683714 0.029713212 0.07234164
0003e0 9c 39 8b bd b3 65 31 bd f0 c1 43 bc 90 87 e3 3c
       -0.067980975 -0.04330988 -0.011948094 0.027774602
0003f0 2f ac d9 bc db 97 a7 3d 8f 68 91 3d e5 aa eb 3b
       -0.026571361 0.08183261 0.07100021 0.007192003

conv2.bias f4 [64]
000000 33 8e 18 bc fa f5 1a 3d d8 4c 8f bb 8c 63 1b bd
       -0.009311247 0.037832238 -0.004373174 -0.037936732
000010 86 48 e4 3c 1f 15 aa bc 91 bb 2b bd a2 5b be bc
       0.027866613 -0.020762024 -0.041926924 -0.023237053
000020 d5 93 73 39 34 1b 3a bd 75 cd 94 bc 7b 28 62 3d
       0.00023229358 -0.0454361 -0.018164376 0.055214386
000030 4e ea f8 bc e3 f1 83 bd fd a7 06 bd 39 9d 9d bc
       -0.030385163 -0.064426206 -0.03287505 -0.019240009
000040 e0 ba ce 3c fa 60 0e bd 1c be b8 bc 18 12 14 bd
       0.025235593 -0.034760453 -0.022551589 -0.036150068
000050 04 c1 1e bd f1 a7 03 3b 6e de 5d bc 9a 3d 3e 3d
       -0.038758293 0.0020089115 -0.013541801 0.046445467
000060 99 0d 11 3c 1f c2 8a bc 4e 37 d8 bc 55 6e ff 3a
       0.00885334 -0.016938267 -0.026393559 0.0019487838
000070 bc 17 4d bd db 38 12 3c 46 8c e2 3c 6c ea 2e bd
       -0.050071463 0.008924688 0.027654778 -0.04270403
000080 4c 39 e0 bc 4b a4 05 bb f0 ad 69 3b ec 8d d6 3c
       -0.027371071 -0.0020392116 0.0035656653 0.02619072
000090 22 8a a4 3c 13 e2 73 bc 5f dd eb b8 c5 55 c0 3c
       0.020085398 -0.014885443 -0.00011246907 0.023478398
0000a0 f8 d7 57 bd 9a c9 a5 bd b5 75 dc bc 37 45 0a 3c
       -0.0526962 -0.08095093 -0.026911596 0.008439354
0000b0 11 3f d2 ba cf 22 80 bc 6f 83 42 bc d2 96 89 bd
       -0.0016040524 -0.015641598 -0.0118721565 -0.0671822
0000c0 98 ff 92 bd e5 be e7 3a 97 17 7b bd b3 c1 a3 bc
       -0.07177657 0.0017680792 -0.061301794 -0.019989824
0000d0 30 30 f0 bc af c3 f0 bc 41 ea 19 bc 3c a1 1b bd
       -0.029319853 -0.029390184 -0.009394229 -0.037995562
0000e0 de 05 0c 3c 10 5b 29 bc 7c 0c 50 bd 9f 44 03 bd
       0.008546321 -0.010336652 -0.050793156 -0.032047864
0000f0 75 58 02 3d 64 d2 86 bb 07 67 46 3c 9b 03 49 bc
       0.03182264 -0.004114436 0.012109525 -0.012268926

conv3.weight f4 [32, 64, 3, 3]
000000 94 27 4b 3c 62 a2 25 bd ec 4f 8a bd 1a f5 2a 3d
       0.012399573 -0.040438063 -0.06753525 0.041737653
000010 b9 b8 9e 3d b7 4a 62 bc 4c e5 50 bd be b9 a3 bd
       0.07750077 -0.013811759 -0.050999925 -0.07994412
000020 dc bd 3f bd 89 0c c6 bd e5 4d 96 bd 2a a8 04 3b
       -0.046811923 -0.0967036 -0.07339076 0.0020241835
000030 6c eb 75 3d 43 71 15 bd d1 ed e7 3c e7 11 67 bd
       0.06003897 -0.036484968 0.028311642 -0.056413557
000040 4d d9 ea bd 52 86 87 bd 75 f1 c0 3c 0f f0 a2 bd
       -0.11467228 -0.066174164 0.023552636 -0.07955944
000050 15 90 ce bc 14 68 96 bd 04 a3 67 bd be 43 f2 3d
       -0.025215188 -0.0734407 -0.05655195 0.11829327
000060 f7 2d ee bd 73 25 ef ba 07 12 0a 3c eb c7 07 bb
       -0.11629861 -0.0018245414 0.00842715 -0.0020718526
000070 22 35 fb 3c 95 56 67 bd 16 cb 5b bc d1 f3 78 ba
       0.030664984 -0.056479055 -0.013415119 -0.00094967807
000080 94 35 56 3c 0e 53 d5 bd 4a d9 51 be da aa 42 3d
       0.013074297 -0.10416232 -0.20493045 0.047526218
000090 b7 b5 f6 bd cb 50 fd bc d2 5e 6a bd e6 ca ce bd
       -0.12046378 -0.030922314 -0.057219334 -0.100972936
0000a0 e1 c0 ba 3c 3f 95 81 3d b9 ea 82 bd 4f 10 0e bd
       0.02279705 0.063272946 -0.06392426 -0.03468352
0000b0 9e 8f c0 bd 1b a2 1e be 05 4e 39 3c 77 3c ac bd
       -0.09402393 -0.15491526 0.011310105 -0.0840997
0000c0 2e fd ad 3d f3 f3 8b bd 84 0c 8e bd 7f e2 64 3c
       0.08495556 -0.06833639 -0.06935981 0.0139700165
0000d0 1a 2f c4 3d 48 a1 b0 bc 37 45 45 3d 2d 5e 53 bb
       0.095792964 -0.02156128 0.04816171 -0.0032252178
0000e0 04 5b 81 3d 67 78 0a bd c1 d6 a3 3c da 40 53 bd
       0.06316188 -0.03380623 0.019999864 -0.05157552
0000f0 5f 00 59 bc dc d7 10 be c8 5d e5 3a 00 02 0b bd
       -0.013244717 -0.14144844 0.0017499262 -0.033937454
000100 3f a5 6a bb 2e cb be bd 8c 43 e5 bc 6d f9 c4 3b
       -0.003580406 -0.09316097 -0.02798631 0.006011179
000110 6d 7c 4b bb 16 d8 98 bd 97 83 b9 bd 06 59 b1 3d
       -0.0031049505 -0.0746309 -0.09058302 0.08659558
000120 e9 ed 26 3c d7 1f 05 bc 03 69 a0 bd ba eb 0c be
       0.010188558 -0.008125267 -0.078325294 -0.13761798
000130 4f 6a 0e bc 24 53 46 bc c4 f0 c7 3b e4 22 1c be
       -0.008692338 -0.012104783 0.0061016995 -0.15247685
000140 ee 7c 10 3d 01 65 7a 3d 9a 03 e4 3d 23 6a 9f bd
       0.035275392 0.06113148 0.111334994 -0.07783916
000150 fd 09 cd 3d 49 12 16 bd 37 50 44 bd 11 c8 81 bd
       0.10011671 -0.03663853 -0.04792806 -0.06336988
000160 da d8 a5 3d 22 54 a7 3d 72 f4 d8 3c cb 0a 0e bd
       0.08098002 0.08170344 0.026483748 -0.03467826
000170 38 c6 1d bc 78 9d c0 3c 8f 7b 04 3d 15 89 36 bd
       -0.009629779 0.023512587 0.032344397 -0.044564325
000180 8e 4a 05 3c 92 b9 2a be 13 43 c0 3c 24 63 98 3d
       0.008135451 -0.16672352 0.023469483 0.074407846
000190 66 48 6e bd e7 0b aa 3d 26 63 28 3d 8b 24 79 bd
       -0.058174513 0.083030514 0.04111018 -0.060825866
0001a0 15 86 a1 3c d2 1f 26 bd d4 32 ed bc c8 1d 4d bc
       0.019717256 -0.04055769 -0.0289549 -0.012519307
0001b0 fb 29 cf bc 70 6a 42 3c da 29 a1 bc fe bd 21 bd
       -0.025288573 0.011866197 -0.019673277 -0.03948783
0001c0 d4 df 01 bd 99 40 12 3d 05 c1 44 bc e0 a4 8b bd
       -0.0317076 0.035706136 -0.01200891 -0.06818557
0001d0 fa 48 46 bd ac 25 05 bd aa 9e 75 3c 75 9c 5e 3d
       -0.04840944 -0.03250663 0.014991442 0.054348428
0001e0 0c 11 46 3d c7 db f7 bc c3 dc ca bd ff e9 11 3d
       0.0483561 -0.030256165 -0.09905388 0.035623547
0001f0 43 4c 36 bd 65 87 f5 3d 1b a6 fa bd 64 cc de 3d
       -0.044506323 0.11988715 -0.12238713 0.10878828
000200 b0 b0 14 be 18 63 b9 bc 07 f4 76 bc c1 49 ad bd
       -0.14520526 -0.02263026 -0.015072829 -0.08461333
000210 dc e8 c9 3c 20 61 5e 3d 4d a2 58 bd 63 32 bb bd
       0.024647169 0.054291844 -0.052889157 -0.0914047
000220 7e 22 58 3d d1 62 61 bd 38 1b 11 be c9 35 95 3d
       0.05276727 -0.05502588 -0.1417054 0.07285649
000230 25 87 69 3b 16 4b c7 bd ad bf 31 bc b4 1c 42 3d
       0.003563353 -0.097311184 -0.010848922 0.047390655
000240 4b 1e fb b9 75 05 4f bd a7 f8 de bb af ef c3 3c
       -0.0004789702 -0.050542314 -0.006804544 0.023918001
000250 37 a6 b3 3c 36 0a e5 3c 3b 28 0a ba 65 0e 05 3d
       0.021929843 0.02795897 -0.0005270277 0.03248443
000260 f4 6f c9 3c ea ba d5 bd 7e d4 89 ba 19 4f d9 3c
       0.024589516 -0.10436042 -0.0010515598 0.026526975
000270 17 8f bb 3c 79 0f d5 bc e9 f1 b3 ba af 71 49 3d
       0.022895379 -0.026008354 -0.0013728711 0.049180683
000280 90 ae 9b 3d db ef f8 bc 2d c4 bf 3d 14 34 0e bd
       0.076016545 -0.03038781 0.093635894 -0.034717634
000290 bc 7e 04 be f8 1b ca bd b2 47 b8 bd d9 d1 24 be
       -0.1293897 -0.09868616 -0.0899805 -0.16095676
0002a0 39 5e f0 3c 65 93 22 3e 19 d1 d7 bc d5 3b f0 3d
       0.029341804 0.15876539 -0.026344823 0.11730162
0002b0 78 17 0c 3d f4 fc f5 bc c2 e0 ed 3d 62 4c ed bb
       0.03420207 -0.030027844 0.11615135 -0.0072417716
0002c0 a7 a5 9f 3d 1a 47 44 bd 96 8c 42 3c 40 10 15 bc
       0.077952676 -0.04791937 0.011874339 -0.009098113
0002d0 44 60 ef bb b9 06 41 bd b9 ee 2d 3d 79 1b ac bb
       -0.007305177 -0.04712555 0.04246399 -0.0052522984
0002e0 1a f8 84 3c 82 50 fa 3c ce 1c 86 3d fe 39 85 bc
       0.016231585 0.030555967 0.06548463 -0.016263004
0002f0 a1 1d 30 bd f8 c9 d9 bd 4f d8 c5 bd 76 dc 33 bc
       -0.042997006 -0.106342256 -0.09660398 -0.010977855
000300 1b 71 94 3c 7c f4 aa bc dd a8 63 bb 39 58 54 3d
       0.01812034 -0.020868532 -0.0034738102 0.05184195
000310 10 76 53 bd 77 08 14 be 60 35 25 be 7f 96 39 bc
       -0.051626265 -0.14456354 -0.16133642 -0.011327385
000320 8a 23 8f bd 22 11 b2 bc 9f 8c 86 3c b1 ae e8 3c
       -0.069892004 -0.021736685 0.016424475 0.028403612
000330 4f c1 6f 3d 6e 3a be 3c fb 5d 9e 3d b7 c8 70 bd
       0.058533963 0.02322122 0.07732769 -0.058785167
000340 1b d8 39 3c 08 4f 88 bd df b6 34 bd 08 f6 bf bd
       0.011343027 -0.06655699 -0.044119712 -0.093730986
000350 ca d9 cf bc e7 68 2b 3c 2a cf bd ba 79 99 b5 bd
       -0.025372405 0.010462022 -0.0014481295 -0.08867163
000360 80 a8 60 3d cc 7e 60 bc 4f 28 b2 bb 63 cd 8a 3c
       0.054848194 -0.013702106 -0.005436934 0.01694364
000370 40 f5 6c bd b7 e6 a1 bd e8 97 5d bd 1e d9 cd 3c
       -0.057851076 -0.079053335 -0.054099947 0.025127944
000380 c4 43 0e be df 12 b8 bd 35 d4 84 3c b7 67 a0 bd
       -0.13893038 -0.089879744 0.01621447 -0.07832282
000390 8e 86 b4 3c 88 56 ef 3b 29 60 a7 3d 3d 4a 89 bc
       0.022036817 0.0073040165 0.08172638 -0.016759032
0003a0 9f ea e3 bc d5 ed a5 bd e2 4c 53 3d 2b 93 a6 bd
       -0.027821837 -0.081020035 0.051586993 -0.08133539
0003b0 c0 26 f7 3b 1e 1d 84 3d 6e e6 fa bc 22 65 7a bd
       0.007542461 0.06450866 -0.030627456 -0.061131604
0003c0 bf be b5 bc 81 dc 20 3e db e0 aa 3c 70 be 0b 3d
       -0.022185681 0.15709116 0.020859173 0.034117162
0003d0 78 32 e6 bc 07 46 d7 bc 59 15 9b bc fc d2 48 bd
       -0.028100237 -0.026278509 -0.018931078 -0.049029335
0003e0 c9 cf 97 3d f0 26 62 bc 51 13 ba 3c fa 9b c6 3c
       0.07412679 -0.013803229 0.022714289 0.024244297
0003f0 93 b5 9c 3d fc 6c a4 3d 5f d0 54 3d c9 f0 92 bb
       0.0765182 0.080285996 0.05195653 -0.0044842702

conv3.bias f4 [32]
000000 89 17 00 ba bd 16 18 3c fe 3e 58 bd c0 88 59 3d
       -0.00048863195 0.009282765 -0.05279445 0.05310893
000010 7f ac 5f bb df 0c 1a 3d 09 cf cd 3b cd 8d 31 ba
       -0.0034129915 0.03760993 0.006280784 -0.0006773144
000020 8f 6c ad 3c 07 1c 55 bd 31 39 d8 3c 62 fb 0d 3d
       0.021169929 -0.052028682 0.026394458 0.034663565
000030 44 dc 58 bd 9f 5a 5c bd fe 5b ef bc 17 c2 50 3a
       -0.052944437 -0.05379736 -0.02921867 0.0007963492
000040 f9 e6 95 bb 05 0d c8 bb a8 12 50 bd 65 ad 12 bd
       -0.004574653 -0.0061050677 -0.050799042 -0.035809893
000050 93 30 02 bd 17 bb a5 bb ae d5 5f bc 4c cd 87 3a
       -0.031784605 -0.0050577032 -0.013661785 0.0010360866
000060 c5 e1 34 bb 3c 61 95 3c fa ac 60 bc a3 c8 12 bc
       -0.002760039 0.018234842 -0.013713116 -0.008958968
000070 73 ea 88 b9 37 a8 20 bc 1f bc d1 bb 29 55 ee ba
       -0.0002611462 -0.009805731 -0.0064005996 -0.0018183339

conv4.weight f4 [16, 32, 3, 3]
000000 7d 81 4f 3d 5f ca 6d 3d ab 60 cc bb 9b 63 67 3d
       0.0506606 0.058054324 -0.0062371097 0.056491476
000010 65 2b f3 bc d2 11 4b bd 21 71 4f bd cc 56 76 bd
       -0.029683778 -0.04957754 -0.050644998 -0.06014137
000020 3a 51 dd 3d 46 00 7f bc 45 02 87 3c f0 cc 36 3d
       0.10806508 -0.01556403 0.016480574 0.044629037
000030 ce 71 d2 bd f7 d7 32 3d e2 07 59 3d 71 6a 29 bc
       -0.10275613 0.04366299 0.052986033 -0.010340319
000040 c9 2e 7c bc ba c0 23 3b ca fe 95 bc 21 c9 c3 bd
       -0.015392014 0.00249867 -0.01830997 -0.09559847
000050 0c 10 09 3d 0f 0b 97 bd 5d 36 94 bd 3f d0 72 3c
       0.03346257 -0.07375156 -0.072369315 0.014820158
000060 2d 52 df bc f8 48 15 3d 29 9c 9e bc c5 3b b2 3d
       -0.027260864 0.03644654 -0.019361572 0.087028064
000070 3d 21 64 3d fd 39 e9 3c bd 70 9b 3d 46 37 85 3d
       0.05569576 0.028470034 0.075898625 0.06504683
000080 11 fe a7 bd e1 ed 6b 3c 18 83 92 3c ff 2a bb 3d
       -0.08202756 0.0143999765 0.017884776 0.0913906
000090 fa f5 02 bd a5 33 d2 3d 98 6a 4f 3d 63 15 7d bc
       -0.031972863 0.10263757 0.050638765 -0.0154469935
0000a0 1e 70 09 be 09 b8 ba bc 73 12 4e 3b bd 49 5b 3c
       -0.13421676 -0.022792833 0.0031444102 0.01338428
0000b0 43 bf 0a 3b 50 ca f0 3c e2 47 45 3d bc dc 80 bc
       0.002117113 0.029393345 0.048164256 -0.015730254
0000c0 1a c9 13 3d a5 c7 bd bb b7 6f ba 3d 14 12 2e bc
       0.036080457 -0.0057916217 0.09103339 -0.010624427
0000d0 06 bd 30 bd b7 7a a5 bc 94 97 9c bd 44 80 15 3d
       -0.043149017 -0.020200117 -0.07646099 0.036499277
0000e0 b4 33 4f 3c 18 c5 1e bd 59 0d 85 3d 9f d3 5e bc
       0.012646604 -0.038762182 0.064966865 -0.013600259
0000f0 4e 1c fe bc df b5 2e 3d f6 d9 29 ba c2 cb ae bd
       -0.031019356 0.042653915 -0.0006479317 -0.085349575
000100 98 11 83 3c 16 ab c4 b8 55 d9 5a ba 87 d5 b6 3d
       0.0159996 -9.3778755e-05 -0.0008348425 0.08927446
000110 5f 00 1e 3b a9 46 49 bb 6b e9 c8 3c e2 b1 ee 3b
       0.0024109108 -0.0030712283 0.024525365 0.007284389
000120 4b 20 85 bd 7b 4a b4 bd 19 d2 85 bc a6 d6 63 bc
       -0.065003 -0.088032685 -0.016335534 -0.013906157
000130 09 64 aa bc 40 6c c2 bb 45 45 e2 bb cf b3 70 bb
       -0.020799654 -0.0059333146 -0.00690523 -0.0036728268
000140 24 c1 07 3c 13 ad 59 bb b6 7a 62 3c 46 1b c3 bd
       0.008285794 -0.0033214733 0.013823202 -0.09526686
000150 7e f8 02 3e 06 1c ba 3d 4d 5c 1d 3b e6 36 06 3c
       0.12790105 0.09087376 0.0024011314 0.0081918
000160 e6 6e 8a 3d 6a d0 1f be 64 a8 c1 3d 94 6a 0a 3d
       0.067594334 -0.15606847 0.09455946 0.033793047
000170 4a 69 66 3a 9c 88 f3 3d a9 01 b5 bc 51 fb 9f bc
       0.0008789493 0.118912905 -0.022095518 -0.019529017
000180 a1 f5 a3 3a 08 8a 93 bc 45 88 e7 bc f5 6c c9 3d
       0.0012509116 -0.018010154 -0.02826322 0.09835235
000190 69 14 53 3d fc 82 37 3c 84 d4 a2 3c be 3a c4 3b
       0.051533137 0.011200663 0.019876726 0.005988448
0001a0 3c 59 7e 3d ac cf 05 3d 3e e0 41 3d 6f 7c 01 bd
       0.06209682 0.032668754 0.047332995 -0.03161281
0001b0 55 74 c2 bd fa 32 85 3c 04 8b 44 bd f1 23 9a 3d
       -0.09494845 0.01625966 -0.047984138 0.075263865
0001c0 45 06 8b bd 32 c9 4a 3d f2 b7 58 bd 45 dd de bc
       -0.06788305 0.04950828 -0.0529098 -0.027205119
0001d0 16 57 49 bd 69 52 9b bd 10 de 03 bc 49 97 86 bc
       -0.049155317 -0.07584078 -0.008048549 -0.01642956
0001e0 36 a4 45 3c cd 00 01 be e8 09 aa 3d e5 e9 32 3d
       0.012063077 -0.12597962 0.08302671 0.04368009
0001f0 15 4e 96 38 05 6f 88 3b b2 1b 4b bc a2 1c 9d bd
       7.167101e-05 0.004163625 -0.01239674 -0.07671477
000200 09 42 b1 3c f6 3a 11 bd 1b 52 0e 3d be 52 a0 3d
       0.021637933 -0.03545662 0.03474627 0.07828282
000210 2b 56 8f bc 11 65 fc bc 48 9f 17 be 19 20 0a bc
       -0.017497143 -0.030809911 -0.14806855 -0.008430504
000220 1c 21 60 3d d2 df db bc ae bc 1c bd e1 07 77 3e
       0.054719076 -0.026840124 -0.038265876 0.241241
000230 1d 14 1e ba ed c4 69 bd 94 60 c5 3c f1 45 26 bb
       -0.0006030219 -0.05707257 0.024093904 -0.0025371278
000240 e0 e9 ac bc 65 80 c8 bd 03 2c d9 3c ea 25 a5 3d
       -0.021107614 -0.09790114 0.026510244 0.08063872
000250 af 91 0f be 74 24 61 bc 4a aa 2a bc 46 c4 f8 3b
       -0.14020418 -0.013741601 -0.010416577 0.007591757
000260 39 79 0d 3c c5 27 8e bc 6c 84 53 bd 9f 9e 76 3b
       0.008634859 -0.017352948 -0.05163996 0.0037631167
000270 e7 88 fd bb 35 10 bf 3c 97 89 c8 3c 83 25 6c bc
       -0.0077372673 0.023323158 0.02447967 -0.01441324
000280 48 ca 07 3d c6 b8 cb ba b8 33 7d bd b3 00 11 3e
       0.033151895 -0.0015542738 -0.0618169 0.14160423
000290 e5 64 e0 bc ce a6 80 bd 22 de 0e bd f7 2b 67 bb
       -0.02739186 -0.062818155 -0.03487981 -0.0035274008
0002a0 ad e3 f2 3c 9e 62 ee 3d 65 4a 58 3d 7f 28 31 bd
       0.02964958 0.116399035 0.052805323 -0.04325151
0002b0 fe d5 a2 bc 21 d6 33 bc 8c a6 1f 3b 89 92 92 bc
       -0.01987743 -0.010976345 0.0024360744 -0.017892139
0002c0 a8 65 68 bb b1 f0 38 bb 1b 7e 03 3d 4e 28 84 bd
       -0.0035460982 -0.0028219635 0.032102685 -0.06453
0002d0 01 48 0f 3e ef 8f 1e bd 56 ed 73 3d 68 4c 03 bd
       0.13992311 -0.038711485 0.059552513 -0.03205529
0002e0 5c af 76 3d 40 75 2f bd b3 21 93 3d 1e 92 0f bd
       0.06022583 -0.042836428 0.07184162 -0.035051458
0002f0 62 d5 5d 3c 23 19 ce bb 2b 1e 19 bd 45 db 47 bc
       0.013539644 -0.0062896176 -0.037382286 -0.012198274
000300 b2 f7 96 bd 0f e5 1d 3e f1 e8 76 bc 47 fc ac 3b
       -0.07371463 0.1541941 -0.015070186 0.0052790972
000310 60 48 1f bc 4f fa 2d bb ce 56 c5 3d 7a ef b3 3b
       -0.009721845 -0.00265469 0.09635697 0.0054911943
000320 10 4e b6 3d 0b 35 61 bd bf c3 dc bc c1 fd 53 ba
       0.08901608 -0.054982226 -0.026948808 -0.00080868235
000330 28 b7 1f 3c 09 33 2a 3d db 8e 25 3d 0b 9f 70 3b
       0.009748258 0.041552577 0.04041944 0.003671589
000340 0c 85 df bb df 41 3a bc 8a 13 8e 3d 66 71 03 3e
       -0.0068212803 -0.011368244 0.069373205 0.12836227
000350 16 e5 29 bb e4 80 b7 3b ad de 54 3c 9c ba 79 bc
       -0.00259239 0.0056000818 0.012992543 -0.015242245
000360 13 bf 17 3e dc ff 60 bc 44 e3 98 bc 35 67 42 bd
       0.14818983 -0.013732877 -0.018663056 -0.047461707
000370 2e a8 d0 bd be 34 ab 3c f7 a8 9d 3b 02 c0 d2 3c
       -0.10188328 0.020899173 0.004811402 0.025726322
000380 f1 8f 95 3b 56 4f 4a 3d da 98 b1 3c 67 ec ac 3b
       0.0045642783 0.049392067 0.02167933 0.005277205
000390 66 7a d5 3d 0b c0 5f be dd 06 c9 bb 11 d5 1a 3c
       0.10423736 -0.21850602 -0.0061348514 0.009450213
0003a0 06 38 a3 3c da 5b d7 b9 c2 b5 00 3d 90 00 a9 bd
       0.019924175 -0.0004107643 0.031423338 -0.082520604
0003b0 be 05 17 3b f1 4e ee 3c bc 7d 02 3e c2 f4 92 bc
       0.0023044194 0.029090377 0.12743276 -0.017938975
0003c0 94 28 3c bc 7d 86 7f bb d8 37 17 3c 50 61 8b bd
       -0.011484284 -0.0038990073 0.009229623 -0.0680567
0003d0 2a d2 4f 3d 0b 2a 0f bd 53 73 05 3e b3 f6 1f 3e
       0.050737537 -0.034952205 0.13032274 0.15621452
0003e0 10 e1 37 3c 85 ed 78 bc 35 25 2d be 2d 34 72 3d
       0.011223093 -0.015193348 -0.16908725 0.05913179
0003f0 0e 62 1f bc 55 92 09 3e e5 4d 8d bc f8 06 b3 3d
       -0.009727968 0.13434727 -0.017249057 0.087415636

conv4.bias f4 [16]
000000 7a ee 5c 3d e8 27 5d 3d 86 e8 5d 3d 1f 29 5c 3d
       0.053938366 0.053993136 0.05417683 0.053750154
000010 72 37 5b 3d ba e6 5a 3d d1 7d 5b 3d fa 05 5c 3d
       0.053519674 0.053442694 0.053586785 0.053716637
000020 2d 1c 5d 3d f4 c6 59 3d 06 31 5c 3d e3 ee 5c 3d
       0.05398195 0.053168252 0.05375769 0.053938758
000030 24 31 5c 3d 0a 6b 5e 3d 35 cf 5d 3d 04 d6 5c 3d
       0.0537578 0.0543013 0.054152686 0.05391504

exp_avg f4 [64, 1, 5, 5]
000000 81 e9 68 34 1f 1b 79 34 90 54 7c 34 69 cf 27 35
       2.1691632e-07 2.3199799e-07 2.3500093e-07 6.251417e-07
000010 b5 ca 19 35 82 a8 0d 34 ec 4f 79 34 df a8 7b 34
       5.729192e-07 1.3192951e-07 2.3219008e-07 2.3437632e-07
000020 c6 0a 2b 35 fd 06 1e 35 c8 d3 a1 33 5b 5f 80 34
       6.371814e-07 5.8869756e-07 7.5356695e-08 2.3911238e-07
000030 4c 48 77 34 78 40 29 35 c2 63 1f 35 16 d4 8b 33
       2.3029969e-07 6.305122e-07 5.937728e-07 6.51127e-08
000040 7b 08 89 34 d7 2c 86 34 ca cb 21 35 eb ae 23 35
       2.552441e-07 2.499207e-07 6.0273726e-07 6.097677e-07
000050 da ac 86 33 30 aa 89 34 d7 68 95 34 fd ec 2b 35
       6.271303e-08 2.5642066e-07 2.7829694e-07 6.404733e-07
000060 b3 7a 28 35 58 33 1c 35 26 b9 17 35 c0 8b 3d 35
       6.276343e-07 5.8189244e-07 5.652131e-07 7.061135e-07
000070 92 39 bb b3 de 87 f4 b3 7d 8a 1d 35 59 44 fe 34
       -8.718338e-08 -1.13868495e-07 5.8688585e-07 4.7360916e-07
000080 e6 8f 36 35 94 5c b1 b2 b6 02 6c b4 78 60 01 35
       6.8009683e-07 -2.0647612e-08 -2.1980199e-07 4.8196625e-07
000090 e0 34 cf 34 3d 9b 42 35 d9 b4 59 33 b5 4b 8f b4
       3.8595226e-07 7.2496533e-07 5.068873e-08 -2.669091e-07
0000a0 8e 9a ff 34 a0 26 a6 34 a6 b9 3b 35 be af fa 33
       4.7609905e-07 3.0948013e-07 6.993308e-07 1.16734995e-07
0000b0 41 84 c9 b4 2a 74 ff 34 2e 28 96 34 6a eb 1e 35
       -3.7535395e-07 4.7581972e-07 2.7968912e-07 5.920216e-07
0000c0 7f f9 93 34 cc 07 e2 b4 a3 a0 8c b3 36 7d e0 b0
       2.7562416e-07 -4.2101453e-07 -6.548478e-08 -1.6333732e-09
0000d0 19 8a 71 b4 96 5f 0b 34 10 fb 75 31 d0 00 af b2
       -2.2495114e-07 1.2980158e-07 3.5794905e-09 -2.037305e-08
0000e0 f4 dc 8d 32 45 38 5d b4 09 ba 25 34 f0 cc 96 33
       1.6515038e-08 -2.06027e-07 1.5434502e-07 7.022197e-08
0000f0 12 00 53 b3 fc d2 6e b3 5d ef 32 b4 07 61 13 34
       -4.912733e-08 -5.5605582e-08 -1.6664622e-07 1.372574e-07
000100 19 8d a6 33 5f c8 22 b3 cc f0 36 b3 17 4b fd b2
       7.755643e-08 -3.79008e-08 -4.259418e-08 -2.9487223e-08
000110 e7 b7 9f 33 18 52 b2 33 b4 7e d8 32 ba 79 5f 32
       7.437466e-08 8.303704e-08 2.5203327e-08 1.3007986e-08
000120 d9 f9 55 b1 07 96 35 33 47 5d b1 33 3b 0e 19 b4
       -3.1137601e-09 4.2278796e-08 8.259172e-08 -1.4254412e-07
000130 d7 d5 81 b3 71 3a 05 34 27 f9 c8 34 0e 77 0a 35
       -6.045928e-08 1.2407851e-07 3.7434185e-07 5.1582253e-07
000140 cb 22 7f b4 e1 bd 92 b2 4a 79 1c 34 39 ed d8 34
       -2.3761383e-07 -1.7082984e-08 1.4572757e-07 4.0405737e-07
000150 ef 0e 0a 35 82 ca 9a b4 9b 5a a1 32 dc 82 26 34
       5.143074e-07 -2.883208e-07 1.878407e-08 1.5507561e-07
000160 09 b2 da 34 94 3b 0f 35 8b db 93 b4 b5 2e 9f 32
       4.0735202e-07 5.335835e-07 -2.7540622e-07 1.8531276e-08
000170 87 42 24 34 d6 f0 a5 34 3d 2e 13 35 3b 5f 47 b4
       1.5297893e-07 3.0908876e-07 5.4829053e-07 -1.8567964e-07
000180 b7 05 bb 33 73 79 12 34 bb ba 8d 34 31 24 10 35
       8.7089056e-08 1.3641493e-07 2.639916e-07 5.3696846e-07
000190 93 fd 89 33 f9 99 73 b3 8d 2e 13 b4 73 55 b3 b4
       6.4256845e-08 -5.6717884e-08 -1.3707377e-07 -3.340352e-07
0001a0 df 95 96 b1 c1 e9 a4 33 21 36 1f 33 73 76 a8 b3
       -4.382613e-09 7.679365e-08 3.7069302e-08 -7.8446554e-08
0001b0 56 27 86 b4 aa 8e 4c b4 e3 c0 27 31 63 15 b2 b3
       -2.4988066e-07 -1.9050881e-07 2.4411342e-09 -8.292661e-08
0001c0 dd d6 16 33 f8 df 99 b4 77 ed 1d b4 72 45 8d b3
       3.5120014e-08 -2.866143e-07 -1.4708154e-07 -6.578456e-08
0001d0 18 39 f9 b3 39 d4 30 33 76 61 ca b4 ba b0 0a b4
       -1.1605351e-07 4.117121e-08 -3.7696344e-07 -1.2916544e-07
0001e0 87 1a 94 b2 07 ea 07 b4 7f 4a 09 b4 c0 4c 9d b4
       -1.724153e-08 -1.2657993e-07 -1.2786221e-07 -2.9299372e-07
0001f0 d2 a5 3c b4 a4 d1 29 b3 93 72 48 b4 3b 49 99 b4
       -1.756919e-07 -3.9539046e-08 -1.8668133e-07 -2.8551753e-07
000200 34 f9 03 b5 1b 10 4f b5 e4 8f 20 b3 dc 55 2c b4
       -4.916394e-07 -7.7136946e-07 -3.738377e-08 -1.6049984e-07
000210 7e 8a 97 b4 2d 27 0e b5 58 74 47 b5 52 f5 1c b3
       -2.8226708e-07 -5.295613e-07 -7.430258e-07 -3.6544698e-08
000220 c0 a1 25 b4 2e 0d 94 b4 eb 7d 10 b5 ca 16 3b b5
       -1.5425667e-07 -2.7576738e-07 -5.3827415e-07 -6.969609e-07
000230 9e 66 42 b3 ad 7a 23 b4 12 40 84 b4 2b 7d 01 b5
       -4.5262475e-08 -1.5225187e-07 -2.4633533e-07 -4.823839e-07
000240 1e e4 23 b5 0b b5 1e b1 a3 3f f0 b3 91 40 4a b4
       -6.1054186e-07 -2.3094937e-09 -1.1187446e-07 -1.8836205e-07
000250 16 4b e6 b4 e8 00 25 b5 6d 44 2f 36 f1 d4 0c 36
       -4.289547e-07 -6.146861e-07 2.611686e-06 2.0985574e-06
000260 43 30 ee 35 4c 4a db 35 ef 7b e1 35 4c 4c 37 36
       1.7746428e-06 1.6338395e-06 1.6799876e-06 2.7313536e-06
000270 0a ca 18 36 e7 f4 06 36 61 89 d7 35 b2 84 d1 35
       2.2767367e-06 2.0110108e-06 1.6058731e-06 1.5610333e-06
000280 65 fd 3a 36 43 a5 26 36 1c c2 11 36 cb e0 c7 35
       2.7863655e-06 2.4832123e-06 2.171967e-06 1.4892079e-06
000290 67 76 d3 35 04 ca 3e 36 dc b4 2f 36 9c 31 10 36
       1.5755185e-06 2.8429795e-06 2.6182306e-06 2.1486549e-06
0002a0 d6 f5 d1 35 f7 05 f1 35 74 f5 39 36 81 bb 31 36
       1.5643261e-06 1.7957635e-06 2.771002e-06 2.6484197e-06
0002b0 df c9 0e 36 47 73 fa 35 7a 1c 02 36 df 53 78 b1
       2.1277153e-06 1.8660002e-06 1.9388085e-06 -3.6136425e-09
0002c0 ec 92 c6 b1 66 5c 5e 32 01 13 de 33 46 35 cc b2
       -5.7792615e-09 1.294311e-08 1.03411374e-07 -2.3772952e-08
0002d0 ab 5e a1 b2 99 87 85 b2 63 8a 67 32 73 1e 66 33
       -1.8785917e-08 -1.55449e-08 1.3477435e-08 5.357874e-08
0002e0 36 e6 1f b3 aa ba 30 b3 6d 10 ed b2 a8 c9 93 b2
       -3.7229448e-08 -4.1147963e-08 -2.75979e-08 -1.7204755e-08
0002f0 67 86 0e 33 60 8a e5 b2 97 12 30 b3 de 41 95 b2
       3.318419e-08 -2.6722034e-08 -4.09951e-08 -1.7375836e-08
000300 30 50 52 b3 5a ab c7 33 29 1c 8d b1 b0 1f 20 b3
       -4.8967365e-08 9.297828e-08 -4.1068415e-09 -3.7281723e-08
000310 d3 69 1c b3 d9 ad 12 b3 83 d6 04 34 21 69 dc 32
       -3.6417827e-08 -3.4151387e-08 1.2371497e-07 2.5659178e-08
000320 7a 56 8f b3 6c c8 38 34 a0 a3 f4 34 06 85 62 34
       -6.6746864e-08 1.7209248e-07 4.5567594e-07 2.1096284e-07
000330 97 06 5a 34 93 6d 34 33 a9 b8 2b 34 50 24 c0 34
       2.030523e-07 4.2009173e-08 1.5992795e-07 3.5789208e-07
000340 f7 e2 69 34 72 5c 11 34 04 23 69 b3 25 5c 88 33
       2.1782385e-07 1.3537809e-07 -5.4281386e-08 6.3497545e-08
000350 c8 09 a9 34 23 69 22 34 30 31 ca 33 10 08 cd b3
       3.148582e-07 1.5125674e-07 9.415305e-08 -9.547523e-08
000360 0e 37 a2 33 a6 a8 a5 34 53 e2 ff 32 3d 44 0a 34
       7.553727e-08 3.0856353e-07 2.9788827e-08 1.2877076e-07
000370 b0 c5 b9 b3 80 70 50 33 aa 53 af 34 a7 ab 67 b3
       -8.650693e-08 4.8531092e-08 3.2657164e-07 -5.3939996e-08
000380 70 6c fe 33 76 b8 f3 32 49 71 a2 33 1c d3 e4 b4
       1.18475214e-07 2.8372806e-08 7.564319e-08 -4.2621912e-07
000390 ed 36 c9 b3 2e 2b 53 34 75 2f ca 31 b2 58 e7 33
       -9.369783e-08 1.9666615e-07 5.884369e-09 1.0772909e-07
0003a0 d2 47 91 b4 98 ee d5 32 0c f7 82 34 0a f9 60 b4
       -2.706061e-07 2.4904963e-08 2.4394137e-07 -2.0952226e-07
0003b0 d9 8b 60 34 a5 d2 77 b4 d5 34 ce b3 02 89 32 34
       2.0912502e-07 -2.30803e-07 -9.6022326e-08 1.6627385e-07
0003c0 e3 38 85 b4 d2 c5 32 34 1e b3 07 b4 4c 57 21 b4
       -2.481457e-07 1.6649508e-07 -1.2638017e-07 -1.5026052e-07
0003d0 d3 3b 6b 34 27 fd 19 b4 af 02 0a 34 0f 8f ce b3
       2.1907844e-07 -1.4341332e-07 1.2853228e-07 -9.618645e-08
0003e0 ab e8 6b b3 72 72 6c 34 02 8f b2 b4 83 0d d9 b4
       -5.492681e-08 2.2020848e-07 -3.3259136e-07 -4.042923e-07
0003f0 e8 5a 89 b4 9d ff 6b 34 04 6a fd 2f 0b b4 8f b4
       -2.5584382e-07 2.1979072e-07 4.609576e-10 -2.6766824e-07

exp_avg_sq f4 [64, 1, 5, 5]
000000 a1 3b 8d 2d fc 07 28 2d 3f 5d 00 2d 6c d0 39 2d
       1.6056325e-11 9.551467e-12 7.296662e-12 1.05623114e-11
000010 05 0c 6e 2d 07 29 90 2d 68 fa 0f 2d 8d e2 ed 2c
       1.35314026e-11 1.6389124e-11 8.18421e-12 6.7610973e-12
000020 3e 2e 32 2d 25 c5 65 2d 35 ac 96 2d 63 77 0d 2d
       1.0128396e-11 1.3060918e-11 1.7129501e-11 8.041431e-12
000030 e9 d5 ec 2c f2 71 38 2d 56 82 63 2d 9f 20 a3 2d
       6.7312722e-12 1.048449e-11 1.29323965e-11 1.8545441e-11
000040 15 52 1d 2d 5a 07 f5 2c e9 fc 37 2d 3a 8f 70 2d
       8.942643e-12 6.964135e-12 1.0458503e-11 1.3674223e-11
000050 9b ba b2 2d c9 cc 41 2d f2 68 25 2d ab ba 4d 2d
       2.0319127e-11 1.1016251e-11 9.402467e-12 1.16943495e-11
000060 1b 02 8a 2d a8 f0 4a 2e 31 b0 4c 2e 67 4b 84 2e
       1.5689719e-11 4.6143228e-11 4.654072e-11 6.016059e-11
000070 3d 30 9a 2e 46 fc 79 2e 31 1e 40 2e bd 62 37 2e
       7.011678e-11 5.684011e-11 4.368256e-11 4.169708e-11
000080 92 20 72 2e 00 ed 90 2e 49 88 6d 2e cd 46 32 2e
       5.5053358e-11 6.5904615e-11 5.4008607e-11 4.0535398e-11
000090 67 95 1d 2e 7a 71 4a 2e 00 18 7f 2e cc b0 5a 2e
       3.5830363e-11 4.603027e-11 5.8001604e-11 4.972449e-11
0000a0 be 53 2c 2e 1b ba 13 2e 69 ac 32 2e ca 63 67 2e
       3.918265e-11 3.3589225e-11 4.0625645e-11 5.261195e-11
0000b0 02 24 4c 2e 50 07 2b 2e 86 f6 15 2e 19 8c 2d 2e
       4.641621e-11 3.8887393e-11 3.4097634e-11 3.9460078e-11
0000c0 59 ae 59 2e a3 61 45 2e 48 72 61 2d b5 9e 5e 2d
       4.949494e-11 4.4879333e-11 1.2815145e-11 1.2654479e-11
0000d0 da 41 51 2d e9 bc 4f 2d 7b 3b 1a 2d cb 72 60 2d
       1.18948965e-11 1.1808534e-11 8.767094e-12 1.2758415e-11
0000e0 64 43 5f 2d 73 1f 50 2d 23 96 4e 2d f3 09 16 2d
       1.2691046e-11 1.1830414e-11 1.1743081e-11 8.528722e-12
0000f0 c7 13 54 2d 91 3b 51 2d cc 6c 40 2d 63 f9 46 2d
       1.2055196e-11 1.1893501e-11 1.0938094e-11 1.1310372e-11
000100 48 a2 0f 2d 62 74 47 2d 36 01 3a 2d 98 0b 2d 2d
       8.164643e-12 1.13376825e-11 1.0573145e-11 9.836486e-12
000110 8a 01 40 2d 0f f0 0a 2d 38 a5 3c 2d d1 5d 24 2d
       1.0914278e-11 7.8976955e-12 1.0723249e-11 9.343152e-12
000120 72 cc 23 2d b0 b3 39 2d 8f 36 07 2d ad 52 f5 2d
       9.310873e-12 1.0555931e-11 7.685976e-12 2.788999e-11
000130 39 cf a7 2d 22 90 7c 2d 2e 98 a2 2d 1f 8f b2 2d
       1.9077727e-11 1.43565455e-11 1.8484849e-11 2.0299816e-11
000140 f9 ed fe 2d c3 8a 95 2d c7 c5 59 2d df 10 ab 2d
       2.8982138e-11 1.7000961e-11 1.2378937e-11 1.9447942e-11
000150 7a b4 b4 2d d9 1d fd 2d d0 c4 8d 2d 45 43 52 2d
       2.0543778e-11 2.8776025e-11 1.6117246e-11 1.1952055e-11
000160 70 e2 c0 2d c8 27 c4 2d 56 35 05 2e d6 ab a3 2d
       2.1928431e-11 2.2300287e-11 3.028807e-11 1.8607265e-11
000170 06 43 83 2d 17 60 d8 2d f0 ca e4 2d e2 f5 11 2e
       1.492274e-11 2.459903e-11 2.6010721e-11 3.318757e-11
000180 ed 10 cb 2d f3 c0 ac 2d 80 b8 e2 2d e9 a4 f4 2d
       2.3085945e-11 1.9639823e-11 2.577516e-11 2.7812823e-11
000190 a9 f9 48 2e 4a f5 43 2e 1a be 4d 2e 45 3b 48 2e
       4.5696478e-11 4.4555727e-11 4.6780448e-11 4.5527377e-11
0001a0 fa 11 5c 2e b4 e1 4e 2e 23 77 48 2e e0 d8 56 2e
       5.0038175e-11 4.7039442e-11 4.558055e-11 4.885059e-11
0001b0 88 12 5a 2e 74 e0 71 2e c4 4d 50 2e ad 21 45 2e
       4.958392e-11 5.499641e-11 4.7362794e-11 4.4822524e-11
0001c0 b0 5b 53 2e f4 bb 71 2e 46 0e 83 2e e4 7c 4a 2e
       4.805728e-11 5.496399e-11 5.959726e-11 4.6040408e-11
0001d0 6b a7 3f 2e 7b 03 4a 2e 48 58 70 2e cb 05 7e 2e
       4.357707e-11 4.5932574e-11 5.464809e-11 5.775806e-11
0001e0 d6 da 45 2e 0e d6 40 2e 86 b6 49 2e 46 52 64 2e
       4.498698e-11 4.3845864e-11 4.5864222e-11 5.191427e-11
0001f0 ed 27 6a 2e 24 e5 8c 2a 6c be a6 2b ce 72 46 2d
       5.32409e-11 2.5027994e-13 1.1847862e-12 1.1280489e-11
000200 76 1e a1 2d f4 b2 0b 2d a6 5b 8d 2a a9 e6 ac 2b
       1.8317108e-11 7.940971e-12 2.5110225e-13 1.2285356e-12
000210 4c 7a 4b 2d d9 79 a6 2d e4 45 0c 2d 57 bb 8d 2a
       1.1566369e-11 1.8926126e-11 7.9735975e-12 2.5176625e-13
000220 c4 8d b0 2b d2 ba 4e 2d b9 8e a7 2d 13 6e 0d 2d
       1.25449e-12 1.1751227e-11 1.9049083e-11 8.0393634e-12
000230 72 d5 92 2a fd d4 b8 2b de ba 50 2d 47 e5 a5 2d
       2.6082917e-13 1.3133102e-12 1.1864924e-11 1.8860148e-11
000240 13 64 0d 2d fb a8 a9 2a d0 16 c2 2b b0 f2 4c 2d
       8.037143e-12 3.0137684e-13 1.3790861e-12 1.1649945e-11
000250 3b aa 9e 2d 41 af 0e 2d 1e e3 46 33 51 a7 4b 33
       1.8038118e-11 8.11068e-12 4.630703e-08 4.7416794e-08
000260 33 fe 4d 33 53 68 51 33 a1 87 4e 33 07 80 49 33
       4.7961475e-08 4.8756487e-08 4.8086466e-08 4.69154e-08
000270 82 0c 4f 33 39 da 51 33 6d 23 56 33 14 69 52 33
       4.820732e-08 4.8860077e-08 4.9857977e-08 4.8990003e-08
000280 4f 84 4a 33 c0 96 50 33 2b 68 54 33 98 ef 58 33
       4.7152124e-08 4.856588e-08 4.9454837e-08 5.050933e-08
000290 28 e6 54 33 cd 60 49 33 a0 61 4f 33 98 e8 53 33
       4.9569422e-08 4.6887e-08 4.8284733e-08 4.933881e-08
0002a0 3e fe 57 33 9b 2f 54 33 05 cc 46 33 0d 2c 4c 33
       5.028982e-08 4.9403393e-08 4.6286022e-08 4.7537515e-08
0002b0 5d 7d 50 33 cf bb 53 33 28 58 50 33 73 10 05 2d
       4.854279e-08 4.9298077e-08 4.850895e-08 7.563827e-12
0002c0 22 cb 09 2d d7 fe 0c 2d 87 5b 12 2d 24 52 0a 2d
       7.832653e-12 8.0146645e-12 8.319462e-12 7.862631e-12
0002d0 b0 15 07 2d 20 5f 0d 2d e7 1c 11 2d fb 88 15 2d
       7.678677e-12 8.036044e-12 8.248713e-12 8.500085e-12
0002e0 38 2b 0a 2d ab f9 07 2d 7e 94 0e 2d d4 52 15 2d
       7.853988e-12 7.729299e-12 8.104737e-12 8.488061e-12
0002f0 01 8c 15 2d 8a 15 09 2d 09 a9 09 2d e4 62 0e 2d
       8.5007565e-12 7.792331e-12 7.825082e-12 8.093724e-12
000300 25 ba 17 2d 90 d6 12 2d 28 bb 07 2d 1d 56 0a 2d
       8.624689e-12 8.346782e-12 7.715419e-12 7.863513e-12
000310 d1 0f 0f 2d f7 9d 16 2d 29 37 10 2d 1a e8 06 2d
       8.132121e-12 8.561588e-12 8.1977e-12 7.668555e-12
000320 61 95 12 2d 92 ec 34 2d 49 c0 39 2d 59 22 e6 2c
       8.332308e-12 1.02843446e-11 1.0558728e-11 6.5408065e-12
000330 38 c2 b8 2c 55 fc 26 2d f6 e4 50 2d 12 e7 4c 2d
       5.251157e-12 9.4920365e-12 1.1874271e-11 1.1647365e-11
000340 0e 0a f8 2c a9 28 ca 2c b4 18 3f 2d 6d 86 75 2d
       7.0497002e-12 5.7456995e-12 1.0862578e-11 1.3956486e-11
000350 9c 0a 6e 2d 91 72 10 2d a4 8b e9 2c fc 83 45 2d
       1.35310894e-11 8.210891e-12 6.6377615e-12 1.122746e-11
000360 d0 d2 7d 2d af 5d 7b 2d dc 4b 22 2d 19 9c 00 2d
       1.4428195e-11 1.42885e-11 9.225478e-12 7.310618e-12
000370 b3 44 44 2d e3 8a 78 2d b9 36 7f 2d 74 87 26 2d
       1.1156564e-11 1.4128007e-11 1.4507223e-11 9.466084e-12
000380 95 aa 05 2d 2e fd d8 2e f6 4a e9 2e 81 9c e9 2e
       7.5980515e-12 9.8675165e-11 1.0608929e-10 1.0623414e-10
000390 d5 73 e9 2e 15 93 de 2e 20 40 d6 2e b8 d5 e5 2e
       1.0616189e-10 1.0121518e-10 9.742984e-11 1.04516784e-10
0003a0 46 59 e6 2e 03 35 e9 2e 01 81 dd 2e 1d 1c cd 2e
       1.0475047e-10 1.060503e-10 1.0072832e-10 9.3273146e-11
0003b0 0d a3 d6 2e 54 81 da 2e 92 16 e7 2e c6 83 d9 2e
       9.760557e-11 9.9364655e-11 1.0508673e-10 9.891425e-11
0003c0 6e dd c5 2e 76 c3 cf 2e bd 44 d5 2e d1 12 e2 2e
       8.9978566e-11 9.447991e-11 9.698329e-11 1.02806326e-10
0003d0 16 b7 d7 2e 94 13 c4 2e 8c 7a cd 2e 9b 5c d6 2e
       9.8095906e-11 8.916526e-11 9.3440894e-11 9.748043e-11
0003e0 5a bb dc 2e 45 96 d4 2e 40 d2 54 30 b1 92 63 30
       1.0037722e-10 9.667337e-11 7.7423934e-10 8.279058e-10
0003f0 ea 5d 60 30 c0 03 4e 30 93 ef 40 30 ab 81 57 30
       8.1624185e-10 7.494769e-10 7.018965e-10 7.8400814e-10
